…
Exploration Sequence Pattern\n</code></pre> Exploration 001: Basic mechanism   \u2193 (Variation: what if X?) Exploration 002: Parameter sensitivity   \u2193 (Variation: what if Y?) Exploration 003: Edge case (boundary)   \u2193 (Variation: what if we combine X and Y?) Exploration 004: Interaction effects   \u2193 (Variation: scale to N=100) Exploration 005: Large-scale behavior <pre><code>**Each variation seeds the next.** This creates a connected learning path.\n\n---\n\n## Common Symbolic Values\n\n| **Concept** | **Symbolic Range** | **Example** |\n|---|---|---|\n| Similarity (semantic) | [0, 1] | 0.82 = high relevance |\n| Centrality (small graph) | [0, 1] | 0.65 = moderately central |\n| Confidence (belief) | [0, 1] | 0.75 = reasonably sure |\n| Weight (relative importance) | [0, 1] | 0.40 = moderate importance |\n| Decay lambda | [0, 1] | 0.01 = ~2.9 day half-life |\n\n**Always note:** `0.82 (high relevance to query \"Python concurrency\")`\n\n---\n\n## File Organization\n</code></pre> project/ \u251c\u2500\u2500 explorations/ \u2502   \u251c\u2500\u2500 001_basic_mechanism.md       [complete] \u2502   \u251c\u2500\u2500 002_parameter_X_sensitivity.md [complete] \u2502   \u251c\u2500\u2500 003_edge_case_empty_state.md [complete] \u2
…
